…
Average actions of users: 1.1244732850160122
The number of items: 13738
Average actions of items: 2.9137429028970736
The number of inters: 40029
The sparsity of the dataset: 99.99181486908563%
14 Jan 00:39    INFO 

=================================


14 Jan 00:39    INFO =========1/3: Parameters:['seed', 'rf_loss_weight']=(999, 0.1)=======
/root/autodl-tmp/Generative-Multimodal-Recommendation/Generative-Multimodal-Recommendation/GenMMRec/src/models/gume.py:188: RuntimeWarning: divide by zero encountered in power
  d_inv = np.power(rowsum, -0.5).flatten()
14 Jan 00:40    INFO RFGUME(
  (user_embedding): Embedding(35598, 64)
  (item_id_embedding): Embedding(18357, 64)
  (extended_image_user): Embedding(35598, 64)
  (extended_text_user): Embedding(35598, 64)
  (image_embedding): Embedding(18357, 4096)
  (text_embedding): Embedding(18357, 384)
  (image_reduce_dim): Linear(in_features=4096, out_features=64, bias=True)
  (image_trans_dim): Sequential(
    (0): Linear(in_features=64, out_features=64, bias=True)
    (1): Sigmoid()
  )
  (image_space_trans): Sequential(
    (0): Linear(in_features=4096, out_features=64, bias=True)
    (1): Sequential(
      (0): Linear(in_features=64, out_features=64, bias=True)
      (1): Sigmoid()
    )
  )
  (text_reduce_dim): Linear(in_features=384, out_features=64, bias=True)
  (text_trans_dim): Sequential(
    (0): Linear(in_features=64, out_features=64, bias=True)
    (1): Sigmoid()
  )
  (text_space_trans): Sequential(
    (0): Linear(in_features=384, out_features=64, bias=True)
    (1): Sequential(
      (0): Linear(in_features=64, out_features=64, bias=True)
      (1): Sigmoid()
    )
  )
  (separate_coarse): Sequential(
    (0): Linear(in_features=64, out_features=64, bias=True)
    (1): Tanh()
    (2): Linear(in_features=64, out_features=1, bias=False)
  )
  (softmax): Softmax(dim=-1)
  (image_behavior): Sequential(
    (0): Linear(in_features=64, out_features=64, bias=True)
    (1): Sigmoid()
  )
  (text_behavior): Sequential(
    (0): Linear(in_features=64, out_features=64, bias=True)
    (1): Sigmoid()
  )
  (rf_generator): RFExtendedIdGenerator(
    (velocity_net): SimpleVelocityNet(
      (time_embed): Sequential(
        (0): SinusoidalPositionEmbedding()
        (1): Linear(in_features=64, out_features=128, bias=True)
        (2): SiLU()
        (3): Dropout(p=0.1, inplace=False)
      )
      (condition_encoder): Sequential(
        (0): Linear(in_features=128, out_features=128, bias=True)
        (1): LayerNorm((128,), eps=1e-05, elementwise_affine=True)
        (2): SiLU()
        (3): Dropout(p=0.1, inplace=False)
      )
      (input_proj): Sequential(
        (0): Linear(in_features=64, out_features=128, bias=True)
        (1): LayerNorm((128,), eps=1e-05, elementwise_affine=True)
        (2): SiLU()
        (3): Dropout(p=0.1, inplace=False)
      )
      (res_blocks): ModuleList(
        (0-1): 2 x ResidualBlock(
          (net): Sequential(
            (0): Linear(in_features=128, out_features=128, bias=True)
            (1): LayerNorm((128,), eps=1e-05, elementwise_affine=True)
            (2): SiLU()
            (3): Dropout(p=0.1, inplace=False)
            (4): Linear(in_features=128, out_features=128, bias=True)
            (5): LayerNorm((128,), eps=1e-05, elementwise_affine=True)
          )
          (skip): Identity()
        )
      )
      (output_proj): Sequential(
        (0): Linear(in_features=128, out_features=128, bias=True)
        (1): LayerNorm((128,), eps=1e-05, elementwise_affine=True)
        (2): SiLU()
        (3): Dropout(p=0.1, inplace=False)
        (4): Linear(in_features=128, out_features=64, bias=True)
      )
    )
  )
)
Trainable parameters: 90682496
14 Jan 00:41    INFO epoch 0 training [time: 40.82s, train loss: 84.7088]
14 Jan 00:41    INFO epoch 0 evaluating [time: 5.46s, valid_score: 0.052600]
14 Jan 00:41    INFO valid result: 
recall@5: 0.0244    recall@10: 0.0364    recall@20: 0.0526    recall@50: 0.0750    ndcg@5: 0.0167    ndcg@10: 0.0206    ndcg@20: 0.0248    ndcg@50: 0.0293    precision@5: 0.0051    precision@10: 0.0038    precision@20: 0.0028    precision@50: 0.0016    map@5: 0.0141    map@10: 0.0157    map@20: 0.0168    map@50: 0.0175    
…
