…
Average actions of users: 1.0457511361616778
The number of items: 16803
Average actions of items: 2.451288460393977
The number of inters: 41189
The sparsity of the dataset: 99.99377640221293%
14 Jan 16:46    INFO 

=================================


14 Jan 16:46    INFO =========1/3: Parameters:['seed', 'rf_loss_weight']=(999, 0.1)=======
/root/autodl-tmp/Generative-Multimodal-Recommendation/Generative-Multimodal-Recommendation/GenMMRec/src/models/gume.py:188: RuntimeWarning: divide by zero encountered in power
  d_inv = np.power(rowsum, -0.5).flatten()
14 Jan 16:47    INFO RFGUME(
  (user_embedding): Embedding(39387, 64)
  (item_id_embedding): Embedding(23033, 64)
  (extended_image_user): Embedding(39387, 64)
  (extended_text_user): Embedding(39387, 64)
  (image_embedding): Embedding(23033, 4096)
  (text_embedding): Embedding(23033, 384)
  (image_reduce_dim): Linear(in_features=4096, out_features=64, bias=True)
  (image_trans_dim): Sequential(
    (0): Linear(in_features=64, out_features=64, bias=True)
    (1): Sigmoid()
  )
  (image_space_trans): Sequential(
    (0): Linear(in_features=4096, out_features=64, bias=True)
    (1): Sequential(
      (0): Linear(in_features=64, out_features=64, bias=True)
      (1): Sigmoid()
    )
  )
  (text_reduce_dim): Linear(in_features=384, out_features=64, bias=True)
  (text_trans_dim): Sequential(
    (0): Linear(in_features=64, out_features=64, bias=True)
    (1): Sigmoid()
  )
  (text_space_trans): Sequential(
    (0): Linear(in_features=384, out_features=64, bias=True)
    (1): Sequential(
      (0): Linear(in_features=64, out_features=64, bias=True)
      (1): Sigmoid()
    )
  )
  (separate_coarse): Sequential(
    (0): Linear(in_features=64, out_features=64, bias=True)
    (1): Tanh()
    (2): Linear(in_features=64, out_features=1, bias=False)
  )
  (softmax): Softmax(dim=-1)
  (image_behavior): Sequential(
    (0): Linear(in_features=64, out_features=64, bias=True)
    (1): Sigmoid()
  )
  (text_behavior): Sequential(
    (0): Linear(in_features=64, out_features=64, bias=True)
    (1): Sigmoid()
  )
  (rf_generator): RFExtendedIdGenerator(
    (velocity_net): SimpleVelocityNet(
      (time_embed): Sequential(
        (0): SinusoidalPositionEmbedding()
        (1): Linear(in_features=64, out_features=128, bias=True)
        (2): SiLU()
        (3): Dropout(p=0.1, inplace=False)
      )
      (condition_encoder): Sequential(
        (0): Linear(in_features=128, out_features=128, bias=True)
        (1): LayerNorm((128,), eps=1e-05, elementwise_affine=True)
        (2): SiLU()
        (3): Dropout(p=0.1, inplace=False)
      )
      (input_proj): Sequential(
        (0): Linear(in_features=64, out_features=128, bias=True)
        (1): LayerNorm((128,), eps=1e-05, elementwise_affine=True)
        (2): SiLU()
        (3): Dropout(p=0.1, inplace=False)
      )
      (res_blocks): ModuleList(
        (0-1): 2 x ResidualBlock(
          (net): Sequential(
            (0): Linear(in_features=128, out_features=128, bias=True)
            (1): LayerNorm((128,), eps=1e-05, elementwise_affine=True)
            (2): SiLU()
            (3): Dropout(p=0.1, inplace=False)
            (4): Linear(in_features=128, out_features=128, bias=True)
            (5): LayerNorm((128,), eps=1e-05, elementwise_affine=True)
          )
          (skip): Identity()
        )
      )
      (output_proj): Sequential(
        (0): Linear(in_features=128, out_features=128, bias=True)
        (1): LayerNorm((128,), eps=1e-05, elementwise_affine=True)
        (2): SiLU()
        (3): Dropout(p=0.1, inplace=False)
        (4): Linear(in_features=128, out_features=64, bias=True)
      )
    )
  )
)
Trainable parameters: 112657728
14 Jan 16:47    INFO epoch 0 training [time: 45.09s, train loss: 183.7119]
14 Jan 16:48    INFO epoch 0 evaluating [time: 5.84s, valid_score: 0.070800]
14 Jan 16:48    INFO valid result: 
recall@5: 0.0322    recall@10: 0.0489    recall@20: 0.0708    recall@50: 0.1071    ndcg@5: 0.0211    ndcg@10: 0.0265    ndcg@20: 0.0320    ndcg@50: 0.0392    precision@5: 0.0065    precision@10: 0.0050    precision@20: 0.0036    precision@50: 0.0022    map@5: 0.0174    map@10: 0.0196    map@20: 0.0211    map@50: 0.0223    
…
