…
Average actions of users: 1.1150424273592183
The number of items: 5549
Average actions of items: 3.907370697422959
The number of inters: 21682
The sparsity of the dataset: 99.97990552482683%
13 Jan 16:45    INFO 

=================================


13 Jan 16:45    INFO =========1/3: Parameters:['seed', 'rf_loss_weight']=(999, 0.1)=======
/root/autodl-tmp/Generative-Multimodal-Recommendation/Generative-Multimodal-Recommendation/GenMMRec/src/models/gume.py:188: RuntimeWarning: divide by zero encountered in power
  d_inv = np.power(rowsum, -0.5).flatten()
13 Jan 16:45    INFO RFGUME(
  (user_embedding): Embedding(19445, 64)
  (item_id_embedding): Embedding(7050, 64)
  (extended_image_user): Embedding(19445, 64)
  (extended_text_user): Embedding(19445, 64)
  (image_embedding): Embedding(7050, 4096)
  (text_embedding): Embedding(7050, 384)
  (image_reduce_dim): Linear(in_features=4096, out_features=64, bias=True)
  (image_trans_dim): Sequential(
    (0): Linear(in_features=64, out_features=64, bias=True)
    (1): Sigmoid()
  )
  (image_space_trans): Sequential(
    (0): Linear(in_features=4096, out_features=64, bias=True)
    (1): Sequential(
      (0): Linear(in_features=64, out_features=64, bias=True)
      (1): Sigmoid()
    )
  )
  (text_reduce_dim): Linear(in_features=384, out_features=64, bias=True)
  (text_trans_dim): Sequential(
    (0): Linear(in_features=64, out_features=64, bias=True)
    (1): Sigmoid()
  )
  (text_space_trans): Sequential(
    (0): Linear(in_features=384, out_features=64, bias=True)
    (1): Sequential(
      (0): Linear(in_features=64, out_features=64, bias=True)
      (1): Sigmoid()
    )
  )
  (separate_coarse): Sequential(
    (0): Linear(in_features=64, out_features=64, bias=True)
    (1): Tanh()
    (2): Linear(in_features=64, out_features=1, bias=False)
  )
  (softmax): Softmax(dim=-1)
  (image_behavior): Sequential(
    (0): Linear(in_features=64, out_features=64, bias=True)
    (1): Sigmoid()
  )
  (text_behavior): Sequential(
    (0): Linear(in_features=64, out_features=64, bias=True)
    (1): Sigmoid()
  )
  (rf_generator): RFExtendedIdGenerator(
    (velocity_net): SimpleVelocityNet(
      (time_embed): Sequential(
        (0): SinusoidalPositionEmbedding()
        (1): Linear(in_features=64, out_features=128, bias=True)
        (2): SiLU()
        (3): Dropout(p=0.1, inplace=False)
      )
      (condition_encoder): Sequential(
        (0): Linear(in_features=128, out_features=128, bias=True)
        (1): LayerNorm((128,), eps=1e-05, elementwise_affine=True)
        (2): SiLU()
        (3): Dropout(p=0.1, inplace=False)
      )
      (input_proj): Sequential(
        (0): Linear(in_features=64, out_features=128, bias=True)
        (1): LayerNorm((128,), eps=1e-05, elementwise_affine=True)
        (2): SiLU()
        (3): Dropout(p=0.1, inplace=False)
      )
      (res_blocks): ModuleList(
        (0-1): 2 x ResidualBlock(
          (net): Sequential(
            (0): Linear(in_features=128, out_features=128, bias=True)
            (1): LayerNorm((128,), eps=1e-05, elementwise_affine=True)
            (2): SiLU()
            (3): Dropout(p=0.1, inplace=False)
            (4): Linear(in_features=128, out_features=128, bias=True)
            (5): LayerNorm((128,), eps=1e-05, elementwise_affine=True)
          )
          (skip): Identity()
        )
      )
      (output_proj): Sequential(
        (0): Linear(in_features=128, out_features=128, bias=True)
        (1): LayerNorm((128,), eps=1e-05, elementwise_affine=True)
        (2): SiLU()
        (3): Dropout(p=0.1, inplace=False)
        (4): Linear(in_features=128, out_features=64, bias=True)
      )
    )
  )
)
Trainable parameters: 36202112
13 Jan 16:46    INFO epoch 0 training [time: 9.62s, train loss: 49.0475]
13 Jan 16:46    INFO epoch 0 evaluating [time: 2.89s, valid_score: 0.048500]
13 Jan 16:46    INFO valid result: 
recall@5: 0.0214    recall@10: 0.0324    recall@20: 0.0485    recall@50: 0.0734    ndcg@5: 0.0146    ndcg@10: 0.0181    ndcg@20: 0.0222    ndcg@50: 0.0272    precision@5: 0.0044    precision@10: 0.0034    precision@20: 0.0025    precision@50: 0.0015    map@5: 0.0122    map@10: 0.0136    map@20: 0.0147    map@50: 0.0155    
…
